cnn_estrutura4_digits_1-5.pth (torch, 381925 bytes, 10 tensors)

conv_block1.0.weight f4 [32, 1, 3, 3]
00000000: 83bb 8abe 602d 523e d651 3a3e be25 af3d
00000010: 7bc3 7c3d 4e78 54be fdce ff3d 0560 143e
00000020: 6671 e0bd cae3 b6be bffa cb3d 1310 ffbd
00000030: 140f 96be 44de 9e3d b4ae d83d 7239 193e
00000040: 7534 943e 2b73 cf3d 7f53 2f3e 2250 53be
00000050: 83cf 29be 755a c53c 9fdc 03be f3c3 563e
00000060: 89c9 8fbe 11c6 233d 39f7 a3be a0c4 91be
00000070: f189 623d 8121 a3be ea57 913e 1979 e5bd
00000080: 8698 653e 4bec 9b3d 9639 f93c b274 e0bd
00000090: e03f 9bbd 31a6 d23c 8d94 19bd 4d69 e4bd
000000a0: 0a90 0cbe 2425 8b3e 9ce9 37be 7546 9b3d
000000b0: da6a 533e 0dfa 233e 19dc 89be a935 43be
000000c0: 9da8 ee3d 2822 80be 6838 e2bd b54f 693e
000000d0: 652f 113d 9c61 e43e fed0 d23c e41b 3bbe
000000e0: a448 a73e d558 11be 48a8 963e c5d3 49be
000000f0: a2b2 9e3d be09 02be 0c61 ddbc 1505 4abe
00000100: 78f0 5d3e d112 a9be 3167 bf3e 2817 5cbe
00000110: f7c0 c0be 52c0 853e c7b6 ac3e 2aaf f1bc
00000120: 8029 2c3e c2e9 d2bd f24b 923e 20cc 90be
00000130: dd1f b1be 2573 b63e 14f9 02be 826c 62be
00000140: 3a7c 673e 06f2 333e 8693 cdbc 9cd1 10be
00000150: 270a 01be ed68 843d 7ae5 ae3c 3464 49bd
00000160: c1c8 8dbd 9d82 8d3e 1694 38be 15fd 80bc
00000170: 2b27 993d dcd1 3f3e a15f b83d 30fb 8e3c
00000180: 8ff9 403e ecc2 c3be 4b5a 253d 385c da3e
00000190: 3962 52bd b8e1 683e cc5b 47be 61d2 08be
000001a0: f7d4 e23d 33e5 fd3d 622c 40bd 2af8 02be
000001b0: 6e33 ac3e a1e0 58bd 40cf c1be 6dce c33e
000001c0: 4c1a db3d a1f3 aabe 0918 00be 3350 6dbd
000001d0: 0867 843e eaf0 e7bd ffef 133e 980e 073e
000001e0: e847 613e 18dc 66be 27c7 66be 70ee 26be
000001f0: d21b d43c 1afd 523e a9e1 c0be aea1 2fbe
00000200: 3e07 81be d602 9ebe ae17 b83d bf2c 3a3e
00000210: 73ec ddbd 5f86 e53e 4690 b13e 8fdc c6bc
00000220: df9c 863e d310 41be 8dda 05bd d0e9 02be
00000230: 70ff a33e cdfc a0bd 73fe 60be 4987 1abc
00000240: 4dd4 353e 99ab 97be bb33 263e 2b80 523e
00000250: ed36 4abe 22b3 15be 2cea 80bd 9474 2a3e
00000260: d587 d33d 7777 a3be f02e b83c efb8 b23e
00000270: 25ed 873e 1e74 93be 9df4 0e3e 9c18 48be
00000280: 6ecd 95bd 5672 ed3c 062c c2be 50fb e2bd
00000290: bb91 3c3e 3a02 983e 8bd3 0c3e dbf6 57be
000002a0: 201b 293e f8ba 6b3e 205a 7ebe bc7e 8bbe
000002b0: 871e 913e 39d6 833e cbc8 82bd de0e 9bbe
000002c0: c8f8 5e3e 4719 6ebe 842a 2abe d268 a43e
000002d0: af6e 52be 3d74 853d e3c0 d93d 1020 0d3e
000002e0: 38f4 58bd 73a5 0fbe 4334 20be 0e6c 4abe
000002f0: ec06 38bd 5a48 59bb ec4d 7a3e 07cc 8cbe
00000300: fd0b 2ebe 507d 283e 3cf1 94bc 491a b5bd
00000310: dd6d ed3d 2bf6 31bc d4e9 fbbd 4b42 623e
00000320: 33c6 803d a5c7 aa3e 4fb0 93bd e75c eabd
00000330: b3f7 9fbd 1559 2dbc 5b09 e33d 1aca ecbc
00000340: f6bd 13be 4e64 863e 227d 043e 3ee8 523e
00000350: 655f bdbe 8141 bb3e 0651 0b3e 2417 debe
00000360: dcba a13e 79c8 a83e 7ee9 a3bd 12b7 0cbe
00000370: 043d 9c3d d4bd b1bd 4601 adbe e52c 2abd
00000380: fd25 abbd f52a 99be 98e1 26bd b531 203e
00000390: 2268 9e3e d72b c23e abff b4bd b6f2 013e
000003a0: e261 86be 6eaa 2ebe de84 c6be db22 a9be
000003b0: 2b07 adbe cc0a b33e 811b bf3e 7862 f83d
000003c0: 18c3 e93d 2168 ca3d 0fe7 ab3e 436b 0a3e
000003d0: 96f6 243e 0c79 37be 2c6d fd3d 3755 babd
000003e0: 6c40 51bc 0541 09be 4b08 19be 2ea3 033e
000003f0: cb45 593e 246d 803c f4ce adbe 935e 15be
-0.27096185 0.20525122 0.1819528 0.085521206 0.061709862 -0.20749018 0.12490652 0.14489754
-0.10959129 -0.35720664 0.099599354 -0.12454238 -0.2930838 0.077572376 0.10580197 0.1496332
0.28946272 0.101293884 0.17121695 -0.20636037 -0.16583066 0.024090985 -0.12877129 0.20973186
-0.28083447 0.039983813 -0.32024553 -0.28470325 0.055307332 -0.318615 0.28387386 -0.11204738
0.22421464 0.07613429 0.030422967 -0.10959758 -0.075805426 0.025714012 -0.037495185 -0.11152897
-0.13726822 0.27176774 -0.17960209 0.07581798 0.2064623 0.16013356 -0.26925734 -0.19063438
0.11653254 -0.2502606 -0.11045915 0.22784312 0.03544559 0.4460572 0.02573442 -0.18272358
0.32672608 -0.14194043 0.29425263 -0.1970969 0.07748915 -0.12699029 -0.027023815 -0.19728501
0.21673763 -0.33022168 0.37383416 -0.21493208 -0.3764722 0.2612329 0.33733198 -0.02950247
0.16812706 -0.10298492 0.28573567 -0.28280735 -0.34594622 0.35634723 -0.12790328 -0.22111705
0.22605982 0.17572793 -0.025094759 -0.1414246 -0.12601529 0.064653255 0.021349657 -0.049167827
-0.069230564 0.27638713 -0.1802524 -0.015745679 0.07478174 0.18732399 0.09002615 0.01745376
0.18845199 -0.3823465 0.040369313 0.42648482 -0.051363204 0.22742355 -0.19468611 -0.13361503
0.11075776 0.12397232 -0.046917327 -0.1278998 0.33632988 -0.052948598 -0.37853432 0.38243428
0.10698375 -0.33389 -0.12509169 -0.057937812 0.25859857 -0.113252476 0.1444702 0.13189161
0.22000086 -0.22544897 -0.22536908 -0.16301894 0.025892172 0.20604363 -0.37672165 -0.1715152
-0.25200838 -0.3086154 0.089888915 0.18181132 -0.10836115 0.4482908 0.34680384 -0.024275092
0.26291558 -0.18854074 -0.03267913 -0.12784505 0.3203082 -0.07860718 -0.21972065 -0.009431669
0.17756768 -0.29623106 0.16230671 0.20556705 -0.19747515 -0.14619115 -0.06294665 0.16646034
0.10328642 -0.31927082 0.022483319 0.34906718 0.26548114 -0.28799528 0.139605 -0.19540638
-0.07314573 0.028985184 -0.37924212 -0.1108309 0.18414967 0.296892 0.13752572 -0.21090262
0.16514254 0.23020542 -0.24839067 -0.27245128 0.28343603 0.25749376 -0.063859545 -0.3028478
0.2177459 -0.2325183 -0.16617781 0.32111222 -0.20550035 0.06516311 0.10632493 0.13781762
-0.05296728 -0.14027958 -0.15644936 -0.19767782 -0.044928476 -0.0033154697 0.24443787 -0.2749941
-0.1699676 0.16454053 -0.018181436 -0.08842904 0.115932204 -0.010861914 -0.123004586 0.22095601
0.062878035 0.33355442 -0.072113626 -0.11443501 -0.07810917 -0.010580321 0.11085769 -0.028904963
-0.14427933 0.262484 0.1293836 0.20596406 -0.36986843 0.36573413 0.13605127 -0.4337703
0.31587875 0.32965448 -0.080035195 -0.13741711 0.07628825 -0.08678785 -0.33790034 -0.04154672
-0.08356855 -0.29915586 -0.040742487 0.15643962 0.30938822 0.37924072 -0.08837827 0.12690243
-0.26246554 -0.17057201 -0.38773245 -0.33034405 -0.3379453 0.34969175 0.3732567 0.121281564
0.11414164 0.09883142 0.3357472 0.1351748 0.1610969 -0.1791727 0.123743385 -0.09098285
-0.012771707 -0.13403709 -0.1494457 0.12855217 0.2121803 0.015677042 -0.33946955 -0.14586858

conv_block1.0.bias f4 [32]
00000000: 2bae 2fbe 9f52 05be 1a15 dcbe b599 b4be
00000010: 51c1 a9be c84e 80be 6297 c0be 6d87 2b3c
00000020: 8c8d 04be 836e 7abe 668b 0dbe 7866 1cbe
00000030: 1d8d 12be edd4 f1bd ae2a 9abe 3c53 76be
00000040: 9187 3abe 63e5 e4bd c706 84bd 7d29 1dbc
00000050: 81f6 833d b6d4 3abd c8c9 07be 0e7a 243d
00000060: bd2a 0ebe 31b1 f6bd 0168 41be 0f69 adbe
00000070: fc15 c5bd 45ab 1dbe 3fd4 a1be 03fc 55be
-0.17156284 -0.13019799 -0.4298485 -0.3527352 -0.331553 -0.25060105 -0.37615496 0.0104693
-0.12944621 -0.2445622 -0.13822708 -0.15273464 -0.14311643 -0.118081905 -0.30110687 -0.24055189
-0.18215777 -0.111765645 -0.06446605 -0.009592411 0.06443501 -0.045613013 -0.13260567 0.040155463
-0.13883491 -0.12045515 -0.1888733 -0.33869216 -0.09623334 -0.15397365 -0.31607243 -0.20896916

conv_block2.0.weight f4 [64, 32, 3, 3]
00000000: 2d16 87bd 9b3b 5dbd ba90 d83c 3a46 f1bc
00000010: 4a0d 37bd 677f 2a3d 9934 57be 3651 293c
00000020: fdcc 61be df91 babd 96fb af3d f65d 4f3a
00000030: 7065 abbd 64fa 3a3d 722f 69bd fc3d d3bc
00000040: 20c7 8bbd cc64 afbd c771 2cbe 762b 7cbe
00000050: 4e4f 27be 35a7 3abe 3d55 5bbe 8e13 28be
00000060: 15fb 3ebe 815a edbd 7cc9 e0bc 9201 ad3d
00000070: a357 0fbd 0dd1 493e 374d b53d 7240 603c
00000080: 31bd 39be 155e b3bd 80fe 5abe 3b19 99be
00000090: 2935 4abe b527 453d 1f16 c7bd 9d23 58be
000000a0: 83c9 85bd b30c 95be a1a6 7dbd 27ae 4cbd
000000b0: 7bdc b6bc e565 de3c d900 d53d b8ff 88be
000000c0: bd2e 493e 65b8 e93c 34eb e4be 1a41 c83d
000000d0: abe8 1ebe 3b8f 0ebe 8ac0 e33d c8f6 82bb
000000e0: 5e79 3bbe 67b9 0cbc 2255 abbc 7d27 64be
000000f0: 798c 1f3d a9c1 c7bb 71bd 8bbc 5c7b fd3d
00000100: 663f 1bbe fd59 06bc d2b1 c73d 004a 38be
00000110: a63f e6bc fa32 bcbd 162d b3bc 4ff7 cabd
00000120: c996 f4bd 71ad fa3d 0116 37bc 29bb 38be
00000130: ee1d 0e3c a1c2 47be 529d 073e 1198 7dbd
00000140: 0f2d 463d 1df4 dcbc 7757 67bc faec 02bd
00000150: eed8 a4bd d89c 5dbd bb20 1bbe fea7 01bc
00000160: 2e32 80bd ce3e 043e 2835 1f3e 70db c6bd
00000170: 8553 e73d 7a65 78bd 5ecb a23c a65b 9bbd
00000180: 1c03 02be 6433 ccbb 3ad9 62be ea13 52bd
00000190: 88ee 76bd 1b2c 26bd eb69 973d 8dde 62be
000001a0: e8e6 03be 7e32 293e fb6b 0f3e cb72 913d
000001b0: 000e e63d 85f2 893e 5d86 02bd fb82 183e
000001c0: 63a7 a1be fbc0 f03d b9ff dd3c 11c0 c1bd
000001d0: 4512 463e 1445 0abd 4a00 76ba 1841 653d
000001e0: 80d0 9c3b fb89 c03c bdd9 f93d f569 80bc
000001f0: a7eb 2b3e 9614 463e c24f 86be 4ad7 bf3d
00000200: b404 d13d d42e e1bd f668 ad3d 5f92 77be
00000210: 05de 96bd 3627 2e3d 5868 22bd bbfb 5b3d
00000220: 9d08 c93b c4c9 62bd 3e49 953d 36ea 10be
00000230: 8be7 70bd 7c4b 9a3d 34f9 773d c093 393d
00000240: e1c2 073e 5f4c 223e c080 00be 8335 0c3e
00000250: 3b6d 04be d9f1 46bd 427c 173d bb74 36be
00000260: fbbb c63d 225d 4cbd 18ad 913d a8d9 273d
00000270: 0bb4 36be 849c 563d 14f9 a7bd 0f9c 42bd
00000280: 194f 57bd 5e31 e8bd 7461 1c3e eeff 4ebe
00000290: 046d fc3d 0b46 083d 7579 be3d c36a cb3c
000002a0: 4994 c4bd 513b 5a3d 6025 04be c8d5 37be
000002b0: 65d4 ce3c 9b94 96bc 50bf 09be 4b8c 20bd
000002c0: e70a 32be 5146 a2bc 48e9 21bd 6edf a7bd
000002d0: 6b7e 08be cc13 f1bd 0f2b 5dbe 5d3e 37be
000002e0: d760 3bbe 9f90 15be 8d48 1cbe 7ce5 02be
000002f0: 16f9 55bd 6a89 853d 2179 84bc a8ec 1cbc
00000300: a12f bbbc 02ab cabd 010c b03c b03e 15be
00000310: cb56 b0bd 3062 bcbd dbd8 4ebd 85fd 5dbd
00000320: 5dcf 37bd 73cf 923c c856 e13d dbd9 de3c
00000330: f461 44bc 19a0 0f3e 8210 6ebd 6ace 3a3e
00000340: ebc0 78be 84f9 a43d ac83 02bd 4ae0 0e3c
00000350: c27f 023e 9003 16be 0cad 943d be17 113d
00000360: 6348 1bbc 74f9 8fbd 3df6 28be 3c77 733d
00000370: 5eca 3dbe a927 f5bb c954 253e 5a3c 143e
00000380: a393 fb3d 78a3 69ba e5d3 f0bd a2cb 6a3d
00000390: 645e a2bd cda0 363e ab53 9a3d 5213 b13b
000003a0: 6673 633e 0023 f5bd 96d0 1fbe b685 0cbd
000003b0: bc5e 88bc bf0c a43b cdcc 893c 688b 2abe
000003c0: fdb2 22bd cd91 80bd 8ceb bcbe a9a0 1bbe
000003d0: 942c 43be 77bb 6ebe 5ba3 b7bd 45ba 10be
000003e0: 8b5a 9abd 8e76 0abe 2911 c9bc c6ba 003d
000003f0: 15c7 173e 53df b3bc 1e9d 15be f392 a83d
-0.065960266 -0.054011922 0.026436199 -0.029452432 -0.044690408 0.041625407 -0.21016158 0.010334304
-0.22050853 -0.09109854 0.08592908 0.00079104246 -0.08368957 0.045648947 -0.056930013 -0.025786392
-0.068250895 -0.08564147 -0.16840278 -0.24625954 -0.16338846 -0.18227847 -0.21419235 -0.1641371
-0.18650468 -0.11589528 -0.027439825 0.08447565 -0.034995686 0.19708653 0.08852618 0.01368724
-0.18138577 -0.08758179 -0.21386147 -0.29902062 -0.19746841 0.04813357 -0.09721016 -0.21107335
-0.06532576 -0.2911125 -0.061926488 -0.049970772 -0.02232193 0.027148196 0.10400552 -0.26757598
0.19646735 0.028530309 -0.44710696 0.09778042 -0.15518443 -0.13921826 0.11120708 -0.003996704
-0.18308017 -0.008589125 -0.020914618 -0.22280689 0.038952325 -0.006096084 -0.017058106 0.123770446
-0.15160903 -0.008200166 0.097507134 -0.17996979 -0.028106522 -0.091894105 -0.021872085 -0.099104516
-0.119428225 0.122401126 -0.01117468 -0.18040146 0.008674128 -0.19507839 0.13243607 -0.0619126
0.048382815 -0.026971871 -0.014119974 -0.03196428 -0.080491886 -0.054104656 -0.15149204 -0.007913588
-0.06259571 0.12914583 0.15547621 -0.09709823 0.11295227 -0.06064365 0.019872364 -0.0758584
-0.12696499 -0.006231712 -0.22153178 -0.051288523 -0.060286075 -0.040569406 0.07393249 -0.22155209
-0.12881052 0.16523167 0.14006035 0.07101973 0.11233139 0.2694284 -0.03186642 0.14893715
-0.31573018 0.11755558 0.027099477 -0.09460462 0.19342907 -0.033757284 -0.00093841983 0.05597028
0.0047855973 0.023503294 0.121997334 -0.015675524 0.16789113 0.1934379 -0.26232725 0.09367235
0.10205975 -0.1099526 0.08467285 -0.2417693 -0.073665656 0.042517863 -0.03965029 0.053706866
0.00613506 -0.0553682 0.072893605 -0.14151844 -0.058814567 0.07533929 0.060540393 0.04530692
0.13257934 0.15849446 -0.12549114 0.13692288 -0.12932293 -0.048570488 0.036983736 -0.17817967
0.09703823 -0.049893506 0.07113093 0.040979058 -0.17842118 0.05239536 -0.08201805 -0.04751211
-0.052565668 -0.11337541 0.1527155 -0.20214817 0.123254806 0.033269923 0.0930051 0.024831181
-0.09598596 0.053279225 -0.12904882 -0.17952645 0.025247762 -0.018381407 -0.13451886 -0.039196294
-0.17386971 -0.01980892 -0.039529115 -0.08196913 -0.13329475 -0.11771354 -0.21598457 -0.17894883
-0.1829866 -0.1460595 -0.15262051 -0.12782854 -0.0522395 0.0652035 -0.01617104 -0.009577908
-0.02284986 -0.098958984 0.021490099 -0.14574695 -0.086103044 -0.09198415 -0.05049978 -0.054196853
-0.04487549 0.017921185 0.1100288 0.027203491 -0.0119862445 0.14025916 -0.05812121 0.18242803
-0.24292342 0.08055404 -0.031863853 0.008720467 0.12744048 -0.14649796 0.072595686 0.035423033
-0.009477708 -0.07030001 -0.16500182 0.059439883 -0.18534228 -0.0074815345 0.16145624 0.14476147
0.12284019 -0.00089126034 -0.11759166 0.057323106 -0.0792816 0.17834778 0.0753549 0.0054039145
0.2221199 -0.11969566 -0.15606913 -0.034307204 -0.016646735 0.0050064023 0.01682129 -0.16654742
-0.039721478 -0.06277809 -0.36898458 -0.15198006 -0.19059974 -0.233137 -0.089667045 -0.14133556
-0.07536801 -0.13521788 -0.024544315 0.03142812 0.14822038 -0.021957075 -0.14610717 0.08231153

conv_block2.0.bias f4 [64]
00000000: 3326 31be f465 79bd b617 493d e1ad 25bd
00000010: ae37 1ebd fb97 2dbe 9ddf cebd f760 b6bc
00000020: 9c12 80bd ba18 4abd 880f 653d 19ec b5bd
00000030: 02ce c1bd db41 5b3d f69a b0bd 442a 46bd
00000040: 9afe d2bd a6fa 83bd 8902 e9bd 13a0 a93d
00000050: 7fb4 ec3d ad2e 683d 58c7 e939 dc29 5ebd
00000060: 4b34 3dbd f1cb b7bc 8c16 923d a45d 593d
00000070: 1c9c 96bd 37cb 9bbc 5395 9ebc c928 77bb
00000080: 2cc5 55bd 0791 22be cd56 dcbd cea9 063e
00000090: 7fb2 eebd 8c63 593d adaf a5bc d7a0 08be
000000a0: 8ac8 84bc 884b aebd d6ce dcbc 12e6 0fbd
000000b0: 6aa2 97bd f221 6dbd 848b 1abe 56a2 283e
000000c0: 7b53 40bd b913 67bc 9da0 a8bd 2762 4fbd
000000d0: fc21 96bc 33af 38bd 32d3 71bd 4fa4 ad3b
000000e0: b0ca a7bd 5eaf 10bd fd85 2fbd 33fa c9bd
000000f0: b6f4 01be cec0 88bd 1324 ebbd 13cc b6bd
-0.17299728 -0.060888246 0.049094878 -0.040449027 -0.03862732 -0.16952507 -0.101012446 -0.022263033
-0.062535495 -0.049339987 0.055923015 -0.08882923 -0.09463121 0.0535296 -0.086233065 -0.04838015
-0.10302468 -0.06444292 -0.11377437 0.08282485 0.115578644 0.05668514 0.00044589746 -0.05423914
-0.04619245 -0.022436114 0.07133207 0.05306782 -0.07353994 -0.019017799 -0.019358313 -0.0037713519
-0.05218999 -0.15875636 -0.107587434 0.13150713 -0.11655139 0.05307345 -0.02022537 -0.13342606
-0.016208906 -0.085105 -0.026954096 -0.03513152 -0.07404025 -0.0578937 -0.15092283 0.16468176
-0.046954613 -0.014103823 -0.082337596 -0.050630715 -0.018326752 -0.045088958 -0.059039302 0.005299128
-0.081929564 -0.035323493 -0.04285239 -0.09862175 -0.12691006 -0.066773996 -0.1148149 -0.08925643

conv_block3.0.weight f4 [64, 64, 3, 3]
00000000: 1c1c afbd 52ca 44be f43e 86bd 49e3 75bd
00000010: d2bb d2bd 356e 02be 9dbf 7e3c e8b0 6cbd
00000020: 7c0c b73d 200b b53b 9f67 b7bc b64a ec3c
00000030: 6999 fcbc 0b99 a33c 2b2a 2dbc b296 0e3d
00000040: c829 eebb ae2e 253d cf3c 45be a3df 61be
00000050: 8871 64be 5778 f83b b642 56be 28a8 3ebe
00000060: e51c 7d3c 0699 b6bd aff5 5dbd e97e d83d
00000070: f8e0 bfbd 0fe0 b5bd 1838 8d39 84ba e5bd
00000080: 2132 13bd aebd c03d 8225 153d db38 3c3d
00000090: a5b4 4abe 4ffc e5bc 5ec6 9abc 3b65 5ebe
000000a0: 638a f0bd 16da 0fbe 6231 a0bc fb18 243b
000000b0: bb84 393c c526 47be 63cd f7bd 6079 41bc
000000c0: d8e0 4bbd 14e9 a0bb 3149 a6bd 3f7b 243e
000000d0: e80c a63d 9603 86bc 71de 09be 9911 4dbd
000000e0: e27f c5bc cf05 80bd 27fa 19be eee9 00be
000000f0: 03a6 9abd e312 d8bc 7141 88bd 29ce 2ebe
00000100: 47b1 a9be e0ba 56be b430 5ebe caff 71be
00000110: 7d2a 2fbe c762 a0bd 0650 a83c 11bd a4bd
00000120: 927a 1f3d bd46 363b fdae e0bd 3f55 2e3d
00000130: 2ac3 03be 7420 f3bd 4c0a dbbd ecf4 c53b
00000140: 9a3a 10be 3422 483c a357 8abc 71c6 22be
00000150: 4764 79bd 1335 d5bd 5807 9cbd 2178 e7bb
00000160: d409 60bd 9d24 b4bc b994 a13d d1b1 80bd
00000170: 21a0 23bc 4afe 963d f929 903d e782 23bd
00000180: 777c 09be d25c 16bd 4d44 debd 13ee 953c
00000190: cec1 cbbc 7828 d5bc 0d7c d5bd 9b02 38bc
000001a0: 72f9 c5bc 69db 82be e108 81bd 4a20 3fbd
000001b0: 2828 233c 296a 80bd 08b9 aabd 21c6 92bd
000001c0: 5b2b 803c b3a0 c2bd 493e a6bd 7d4f 14bd
000001d0: 929f 1fbd 4ef6 4e3d 4fff e93d f0a8 1b3e
000001e0: b88c 5cbd c4a0 e93c ca40 f2bc 8df2 1f3d
000001f0: 535d 873d e137 333d 6e5d bb3c 8b1d bcbc
00000200: 989e b6bd 2729 64be 5054 92be 9b53 9bbe
00000210: fa4c 2abd b345 443d a4ac 8a3d f3ee dfbc
00000220: 8d1f c33b c700 bebd 8154 3dbc 449f 1ebe
00000230: 7a6c a4bd 1ae9 373c 694b a03d b41d 733d
00000240: 6edc 993d 2b89 b1bc 3186 28bc 4a99 573d
00000250: c019 87bc 23ee f43c 8830 a1bd d757 3abc
00000260: 4139 58be 2daa 00be bb13 d6bd 4cb2 00be
00000270: 18af 253b f279 3dbd de90 8fbd 2683 503c
00000280: 0be2 b3bd 2cce e73c 0875 4dbd 292b e7bd
00000290: 2678 2dbd 5073 b13d c59f 12bd cde9 d9bd
000002a0: 03d6 173e 45f7 4b3c 5b6b 0abd 662e fc3d
000002b0: 989f 1abd c796 10be d3f6 c83d d1e4 e3bd
000002c0: 70b8 85bd 7f4b 41bc a2f8 8bbd a43d 42be
000002d0: b203 3c3d e5d8 283e 31f2 873d 67ff 003d
000002e0: e45e 7a3d 0370 cabc 13c2 643d 264f 073b
000002f0: a8d2 073d d902 1bbe dfa1 b9bd 5faf 1ebe
00000300: 12be c4bd 4346 02be 80cd 16be 949d 45bc
00000310: 812f 773b 88bb 2fbe fb98 a73d c13d ce3d
00000320: 1d56 00be 9fa6 633d f264 a7bd 1d11 b7bd
00000330: 18eb 32bd a996 f2bd 6a02 84be 7270 c13d
00000340: f45b f3bd d23c bcbd f630 b6bd 8aca 41bd
00000350: 6cd5 04be 6ea3 eabd c54b 7fbd a9bc 273c
00000360: f885 7ebe 3a09 a5bd 0516 09be c53a f9bd
00000370: 097b a4bd c841 3abe 99ca 9fbd 379e 81bd
00000380: 7b21 c1bc 59fc 20be a6b9 9cbd 44fd a1be
00000390: 7fca f5bc 086f d0bc 362c 4abe 99cc 403c
000003a0: 3138 c3bc 9931 81be 0233 9e3b 296f 1c3d
000003b0: 5192 293d 088c b8bb 7085 0f3d 5ce6 cdbc
000003c0: b678 233d 8035 e53c 1945 003d 9fb8 0c3e
000003d0: 65d5 d33d 9ca5 66bd 3f28 883d 85a8 07be
000003e0: affb b8bd 0980 a4bd bd40 383d c46c f43d
000003f0: 74a8 d33d 0bf9 da3d 1d02 f4bd 0a34 1ebc
-0.08550283 -0.19217804 -0.06554976 -0.06003121 -0.1028973 -0.12737353 0.015548614 -0.0577859
0.08937928 0.005525008 -0.022388278 0.028844219 -0.03083487 0.019970438 -0.010569136 0.034811683
-0.0072681643 0.04032772 -0.19261478 -0.22057967 -0.22308934 0.007582705 -0.20923886 -0.18618834
0.0154487835 -0.08915906 -0.05418938 0.10571081 -0.09369081 -0.088806264 0.0002693541 -0.11217216
-0.03593648 0.094111785 0.036412723 0.04595266 -0.19795473 -0.028074412 -0.018893417 -0.21718304
-0.11745145 -0.14048037 -0.019554798 0.0025039304 0.011323149 -0.19448383 -0.12099721 -0.011808723
-0.049774975 -0.0049105976 -0.08119429 0.1606264 0.081079304 -0.016359132 -0.13463761 -0.05006561
-0.02410883 -0.06251108 -0.15036832 -0.12589237 -0.075511955 -0.026376193 -0.06653107 -0.17070831
-0.33143064 -0.20969725 -0.21698266 -0.23632732 -0.17106052 -0.0783134 0.02054597 -0.08043874
0.03893525 0.002781316 -0.10970876 0.042561766 -0.12867418 -0.11871424 -0.10695323 0.00604116
-0.14084855 0.012215186 -0.016887492 -0.15896012 -0.060886648 -0.10410514 -0.07618588 -0.007063881
-0.054696873 -0.021990115 0.07889695 -0.06283916 -0.009986908 0.073727205 0.07039256 -0.03991976
-0.13426386 -0.036709614 -0.10852871 0.018302 -0.024872687 -0.026020274 -0.104240514 -0.01123109
-0.024166796 -0.25558022 -0.06300522 -0.046661653 0.009958304 -0.062702484 -0.08336073 -0.07166696
0.015645673 -0.09503307 -0.08117349 -0.03620862 -0.038970537 0.050527863 0.114256494 0.15201163
-0.053845137 0.028519042 -0.02957191 0.039049674 0.06609597 0.043754462 0.0228717 -0.022963306
-0.08916968 -0.22281323 -0.2857995 -0.30337223 -0.041577317 0.047918033 0.0677121 -0.02733562
0.005954689 -0.09277492 -0.011555792 -0.15490443 -0.08028503 0.011225009 0.07826883 0.0593545
0.07512747 -0.021671852 -0.0102859 0.052636422 -0.01649177 0.029898709 -0.07870585 -0.011373482
-0.2111559 -0.12564917 -0.10452982 -0.12568015 0.0025281366 -0.046258874 -0.07010053 0.012726581
-0.08783349 0.028296553 -0.050160438 -0.11287529 -0.04235091 0.08664572 -0.0357969 -0.10640297
0.14827733 0.01244909 -0.03379379 0.12313537 -0.037749857 -0.14120017 0.09812703 -0.11127628
-0.06529319 -0.011797785 -0.06834532 -0.18968827 0.04590196 0.16488989 0.06637991 0.03149357
0.06112565 -0.024711614 0.055849146 0.0020646541 0.03315988 -0.15137805 -0.090640776 -0.15496586
-0.096065655 -0.12722115 -0.1472683 -0.012061495 0.0037717524 -0.17161381 0.081834756 0.100703724
-0.1253285 0.055578824 -0.08173551 -0.08938811 -0.043681234 -0.118451424 -0.25783092 0.09445275
-0.11882773 -0.09191288 -0.08896057 -0.047312297 -0.12972039 -0.11456953 -0.06232812 0.010237851
-0.24855793 -0.080584005 -0.13387306 -0.121694125 -0.080312796 -0.18189156 -0.07802314 -0.06329005
-0.023575535 -0.15721263 -0.07652597 -0.3163854 -0.030003784 -0.025443569 -0.19743428 0.01176753
-0.023830505 -0.25233153 0.004827858 0.038191948 0.041399304 -0.0056319274 0.035039365 -0.025134258
0.03991004 0.027979612 0.031315897 0.13742302 0.10343436 -0.05631028 0.06648301 -0.13247879
-0.0903238 -0.08032233 0.044983614 0.11934808 0.10334864 0.106920324 -0.119144656 -0.009655962

conv_block3.0.bias f4 [64]
00000000: b175 fb3d 2167 21be ef1a c4bc 3b6e 33bd
00000010: 478c b8bd d887 2abd 284f e1bd 3f3d a8bc
00000020: 9d54 3e3c 8072 463e 3194 00be 7904 50bd
00000030: 47ec 3c3c 0341 083d fc80 ecbc 8c30 29bd
00000040: 51e5 b4bd 5ed9 80bd 563b 7fbd 4fba 2bbd
00000050: 3916 53bd 6840 bbbc fbdc 17be 59fd 28bd
00000060: caad 1a3d 85f1 313a 82ab 00bd 770e d7bd
00000070: 23c6 66bd 8a4d e13c 77da 16bd 3a09 8bbd
00000080: 967c c53b 0196 7d3d 01b1 8fbd 3a54 c3bd
00000090: 8d55 89bd a43b a2bd 0657 ec3d 46d4 65bd
000000a0: f173 09be 5355 053e dc48 53bd 9683 0b3c
000000b0: 397f c3bd 3375 abbd 0dd7 9dbd a233 14b8
000000c0: a95b cdbb 484c d83d 21d1 3a3c 2cc9 93bd
000000d0: 9aa6 2abd 3661 24bd 6904 10be fd92 24bd
000000e0: 191e 28bb b7c6 9b3c d5cb 7abd fe97 0ebd
000000f0: b1c0 a6bd 8e85 08be 0c61 69bc c827 40bd
0.12278307 -0.15761997 -0.023938624 -0.043806296 -0.09011131 -0.041633457 -0.11001426 -0.020537017
0.011616853 0.19379616 -0.1255653 -0.050785515 0.011530942 0.033265125 -0.028870098 -0.041306064
-0.08832801 -0.062914595 -0.062312447 -0.041925725 -0.051534865 -0.02285786 -0.14830391 -0.041257236
0.037763394 0.00067880034 -0.031413563 -0.10500806 -0.0563413 0.027502794 -0.036829438 -0.06788869
0.0060268147 0.061910633 -0.07016183 -0.09537549 -0.06705771 -0.07921532 0.11540036 -0.056110643
-0.13423134 0.1302083 -0.051583156 0.008515259 -0.0954575 -0.08371963 -0.07707033 -3.5334037e-05
-0.0062670303 0.105614245 0.011402399 -0.07216105 -0.04166279 -0.04013177 -0.14064182 -0.04017924
-0.0025652705 0.019015653 -0.061229546 -0.03481292 -0.08142222 -0.13332197 -0.014244329 -0.04691294

conv_block4.0.weight f4 [64, 64, 3, 3]
00000000: 48f2 4ebd 670d 2bbe 0157 123e 3242 84bd
00000010: 3eda e6bc f279 abbd c650 103d 0bb8 a93d
00000020: 6786 693d 0f4d 3d3d 425f fd3b 2fed 033c
00000030: 253f 8a3c a65e 22bc b7d1 193d 7bf6 913d
00000040: d9d6 a93d 4178 293d d04e 073e 3f3b 943d
00000050: 488d 33bd da6c 4b3e 4681 1e3d 3c04 4cbd
00000060: ad87 163e 4d22 223e 060c 443b 4926 f83d
00000070: 6ccf 343e 92bf 10bd 4ae4 c53d 0e17 113e
00000080: 184e 7d3c 42bb 003d 9931 1bbd 0439 2abe
00000090: 28bc dcbb 259c de3a 8466 0abd ef24 163e
000000a0: b9f6 edbd 90a8 d53d c685 38be 39b7 44be
000000b0: 38ab ae3d 34d0 f3bd 77ad 03bc 470b 653c
000000c0: 524a 653e 7761 36be ddf2 bc3d 69da a83c
000000d0: 3842 84bd cd60 cbbb 6b0b 793c 4150 bd3d
000000e0: fad4 d03c eb9d e3bc 2454 95bd e8e4 eabb
000000f0: 3630 a9bd b011 8fbd 1baa 98bd 0e69 8cbd
00000100: b947 17ba 7c5e 273d 59ac 223e 9a30 373c
00000110: cbc7 3ebe d117 91bd 3e07 3abe 3e86 063e
00000120: 4109 133e 7c20 293d 64b4 713d c81d 253e
00000130: 78b5 07be 4834 123b e9db 153e 159f 36bc
00000140: 90cd 5f3d 6b69 8ebc b65c 373d 513d 5ebe
00000150: c208 86bd 3cc9 ccbd 7298 abbd 4a15 293e
00000160: 2a89 113e e959 d0be 5a0a 4f3d 621b 353c
00000170: 00ef f83d b54b b3bd 1712 4cbe 2913 343d
00000180: 0e77 1c3a 900b a0bd d98b 2abe 7960 773d
00000190: 8c42 bb3d 1215 cfbd bdd5 d3bd fbbb 8dbd
000001a0: 3e19 023e d062 9239 fe88 40bc b86f c7bd
000001b0: 7cee 9f3c ab87 b33c 7657 303c 9046 01bd
000001c0: d5ad cc3c 6e65 923a 11fa d1bc 03bd 623a
000001d0: dd3b 463c 24d4 02be e5cc ab3d 364c 3b3d
000001e0: 76c5 2ebd e1a9 2abd dd1a d7bd 33e8 443b
000001f0: b902 1e3d 2861 1a3e c3bf 70bd 743a eb3d
00000200: ebdc 14bd 408e 913e 55c2 1ebe 6c21 7f3d
00000210: 44b7 81be cb16 203e 4789 9f3c 9d31 e5bd
00000220: b4a4 8d3c 1a98 b2bd 3445 23be 8b66 84bd
00000230: 7971 c23d 798f ecbd 6a65 5abd a74d 15bd
00000240: 69bb de3d 9d7f 073e 3de8 a6be b210 dbbd
00000250: a675 143e 5450 3fbe 8e3d bfbb 299b 153e
00000260: 6ee8 06bd 7835 a3bd 20dd e53c 25f3 59bd
00000270: 6aff e2bd 8449 613d 58bb 8c3e 9211 b4bd
00000280: d16a 32be 229a dbbd 7448 c43d 2155 acbd
00000290: b8af 35be 60d7 a4bd a52f 363c eee3 debc
000002a0: db4b f0bd 65f2 ebbd 30c4 d93c 2f51 1fbd
000002b0: 4434 76bd 962d 283d e9c4 c53c 0165 79bd
000002c0: eb49 ac3d 4bcf 75bd b8d2 e63c b114 003d
000002d0: b522 413c 5da2 7dbd a132 813c 8ed1 093b
000002e0: 91ca ff3b c450 4bbd a9b3 0abc 4a29 af3c
000002f0: 9efa f7ba a3d4 53bc fb2c 02be 47c6 16be
00000300: 8359 69be 3f38 4ebc f872 27bd 38e8 9cbd
00000310: 77d6 aa3c a34f 0bbe 5b2b 813a dc52 b23d
00000320: 04eb cabd b20b f2bd 0775 c03c 8003 2d3d
00000330: c33b bbbd 3ede b7bd b07e 1dbd ecf8 ecbd
00000340: 5fce 4c3e 0b34 dbbd aa67 96bd 3aa1 893d
00000350: 51af fabd dd34 6fbe b121 6e3d d3d5 82bb
00000360: 2d2c 9ebd efc1 5ebd 9e0b 3e3d e29a 54bb
00000370: 2614 4a3d 33b9 42be 154e a6bd fb00 6dbc
00000380: c3ba 583d 8138 183e d17c 8c3d f7cc dcbd
00000390: 932f 193e 5e8f 8ebd cc26 203d cc9b ea3d
000003a0: e6c0 143e bbc6 efbc d1f8 bdbd 10e2 59bc
000003b0: d509 0bbe c007 6e3d b2ee 153e 5461 f73a
000003c0: 0a87 36bc f9a5 183e 7442 81ba fb4a 1cbc
000003d0: 7f9e 7d3c 042e 373c 29ce 33be 6d3b 9abd
000003e0: 616f e23d 6e32 62be c65f 43be a71c 023e
000003f0: 0e75 243d c4c0 f0bc f178 c83c 834e eabc
-0.050524026 -0.16704331 0.14291002 -0.06457938 -0.028180238 -0.083728686 0.03523328 0.082870565
0.05701294 0.046216067 0.007732303 0.008052154 0.016875813 -0.009910261 0.037553515 0.071270905
0.08292932 0.04137445 0.13213658 0.07237863 -0.04383591 0.19865742 0.038697504 -0.049808726
0.14700194 0.15833397 0.0029914393 0.12116677 0.1765725 -0.035338946 0.09662683 0.14168951
0.0154605135 0.031428583 -0.037889097 -0.16623312 -0.006736297 0.001698379 -0.033789173 0.14662527
-0.11619324 0.10432541 -0.1801978 -0.19210519 0.08528751 -0.11904946 -0.008036963 0.0139797395
0.22391632 -0.17810617 0.0922601 0.020611959 -0.06457943 -0.006206608 0.015200476 0.09243823
0.02549218 -0.027785262 -0.07291439 -0.007168401 -0.08261149 -0.069857955 -0.0745432 -0.06855975
-0.00057708804 0.04086159 0.15886058 0.011181021 -0.18630902 -0.07084621 -0.18166825 0.13137147
0.14358999 0.041290745 0.059009925 0.16124642 -0.13252819 0.0022308994 0.1463467 -0.011146327
0.0546394 -0.017384252 0.04476615 -0.21703078 -0.06544639 -0.0999932 -0.08378686 0.16512027
0.1421248 -0.40693596 0.05054698 0.011053892 0.12154961 -0.08754674 -0.19928776 0.043963585
0.0005968668 -0.07814705 -0.1665491 0.060394738 0.09143552 -0.10111441 -0.10343502 -0.0692062
0.12704942 0.0002792091 -0.0117514115 -0.097381055 0.019522898 0.021915277 0.01076304 -0.031561434
0.024985233 0.0011169144 -0.025631936 0.0008649381 0.012099233 -0.12776238 0.0838869 0.045726977
-0.042668782 -0.041665915 -0.10503171 0.0030045628 0.038576815 0.15076125 -0.05877663 0.114857584
-0.036343496 0.2842884 -0.1550382 0.062287733 -0.25335133 0.15633695 0.019474639 -0.111911036
0.01729045 -0.08720417 -0.15944368 -0.06464871 0.094942994 -0.11550803 -0.053319372 -0.03645101
0.108755894 0.13232274 -0.3259906 -0.10696544 0.14498004 -0.18682986 -0.0058361953 0.1460997
-0.032936506 -0.07969183 0.028059542 -0.053210396 -0.110838726 0.05500175 0.27486682 -0.08792414
-0.1742356 -0.10722758 0.09584132 -0.084146746 -0.17742813 -0.08048892 0.011119758 -0.027208295
-0.11733218 -0.115208425 0.026582807 -0.038895782 -0.060108438 0.0410591 0.024141746 -0.06088734
0.08412536 -0.060012143 0.02817665 0.031269733 0.01178806 -0.06192242 0.015771212 0.0021029445
0.00780613 -0.04963757 -0.008465686 0.021381993 -0.0018919294 -0.0129291145 -0.12712471 -0.14724074
-0.22788052 -0.012586652 -0.040881127 -0.0766148 0.020854218 -0.13604598 0.000985484 0.087072104
-0.09908107 -0.11818637 0.023493303 0.042239666 -0.09142258 -0.08977936 -0.038450897 -0.115709156
0.200006 -0.10703286 -0.07343991 0.06720205 -0.1224047 -0.2336001 0.0581376 -0.003992775
-0.077232696 -0.05438417 0.046397798 -0.003244095 0.04933562 -0.1901596 -0.08120362 -0.014465566
0.052912485 0.14865305 0.06859744 -0.107812814 0.14959554 -0.06960939 0.0390995 0.11455497
0.1452671 -0.029269567 -0.092759736 -0.013298526 -0.1357797 0.05811286 0.14641836 0.001887361
-0.011140594 0.14907064 -0.0009861724 -0.009539361 0.015479683 0.011180405 -0.17559113 -0.07530866
0.110564 -0.2208955 -0.19079503 0.12706243 0.040150695 -0.029388793 0.024471732 -0.02860189

conv_block4.0.bias f4 [64]
00000000: 4766 57bd ba27 62bb 18cb 35be 295d c1bc
00000010: 0dca 8fbd 26a6 14be 25ef 74bd f8e0 4fbd
00000020: 2c31 99bd 11bf 42bc 69b2 13bd 9acc 89bd
00000030: fdc8 56be c1d1 e5bd 3470 893d 79ee bdbd
00000040: 45c4 a1bd dc86 36be 6c87 1c3e c1f4 20be
00000050: f885 59be 32fa 01be 602e 87bd 9212 d7bd
00000060: ffa0 4cbe 24a2 1fbe 8071 2cbc 2868 85bd
00000070: 1df4 edbc 26f6 22be 270c 02be 4eef 4dbd
00000080: 056d 43be 3ea0 3fbe 6a20 21be 5c1d 4abe
00000090: acf4 d63d 4d7b ea3d 1fcf 093b 7309 96bd
000000a0: d844 eabd c6b8 c3bd 1bc9 b1bd 5d4a bbbd
000000b0: a3cd 043e 8de5 e9bd 52cb cebd 3493 08bd
000000c0: 43ef 88be 18c7 0bbe 65af 85bd 4754 3d3d
000000d0: 2ae5 2cbc d731 8bbb 8cb6 643d 1b44 d2bc
000000e0: c92e 34be 20f8 23bd 51b2 d9bd f5cc d9bd
000000f0: 93b9 a03d 2c2e f4bd 3d12 6cbd d29c 383c
-0.052587774 -0.0034508542 -0.17753255 -0.023603993 -0.0702096 -0.14516506 -0.05979838 -0.050751656
-0.07480082 -0.011886374 -0.036058817 -0.06728478 -0.20975108 -0.11221648 0.06710854 -0.09274001
-0.078987636 -0.17824882 0.15286034 -0.15718366 -0.21242511 -0.12693098 -0.06600642 -0.10501589
-0.1998329 -0.15589195 -0.010525107 -0.06514007 -0.029047066 -0.1591421 -0.12699948 -0.050277047
-0.19084556 -0.18713471 -0.15735021 -0.19737762 0.10495886 0.11449299 0.0021027995 -0.07326021
-0.11438912 -0.09556727 -0.08680936 -0.09145043 0.12969069 -0.114207365 -0.10097374 -0.03334351
-0.26745042 -0.13650167 -0.065275945 0.04622295 -0.010552684 -0.0042478847 0.055838153 -0.02566724
-0.17595972 -0.040031552 -0.10629714 -0.106347956 0.078478955 -0.11922869 -0.05763458 0.011267858

fc.weight f4 [5, 256]
00000000: a4cd b73d f0ce c03c 7019 173e 5482 b6be
00000010: dc8d c23d 6e58 513d 1b91 1f3d 316a 69bd
00000020: 0dc1 573e a24b 3bbd 588a 21be 4e35 4bbe
00000030: 75cb afbd e076 cebd 1852 be3d 8f4e 7ebe
00000040: 27b0 6cbd 51a5 163d 7452 7abd 8da0 c23c
00000050: 4bc9 1ebe 8d6d 4a3d 6e2b 45be 505e 2cbc
00000060: e617 453d 1fd4 d4bc ab48 7dbd 92e5 8a3c
00000070: ec50 613d fc81 d3bd e53c 47bc 1f42 ca3c
00000080: f636 a43c f7fb 153d 25db 44be 2c43 a0bc
00000090: 3969 5abd e50b cd3d 4bc5 6cbd cb8f d6bb
000000a0: d42e 2abd d1f6 d53d e962 5abd 5b59 14bd
000000b0: 5ede 30bd 530c 953c 7d8d c2bc 085c b23d
000000c0: 968b 53be 9ddb ecbc f287 8bbd 447b 7ebd
000000d0: 4655 07be b6c2 a93c bf38 953c b921 7abd
000000e0: d6fa 6e3e 411d b33d 3efe 803d 7d08 5fbe
000000f0: 3fe3 9d3d 579e 0d3d 62be abbd 293c 0cbe
00000100: 16a4 c5bc 48d8 2b3e 87ab 02be 3866 243e
00000110: 6792 8dbe ab8e a53d ba4d 03bd 67e5 d2bd
00000120: 32d0 bf3b d251 4c3e 4b84 543e 2a36 41bd
00000130: 5f29 7e3d 6257 b73d 0b34 dabd 3842 47bd
00000140: 63e7 3bbe 05bc 113e 4dd7 40be ed82 d43d
00000150: 8303 9dbc 7fd4 e73d df2a 54be 4127 21bc
00000160: dd50 87be a8a8 25bc 49a2 1bbe 5ec6 9c3e
00000170: 5200 543c b1fc 5dbe 3da6 ee3d b13f 483d
00000180: f573 77bd 912f 8bbd e08f 18bd c70f 843e
00000190: f88e 32be 8e0c e23b 82bb a23c a07c bcbb
000001a0: ed7e 16be b279 2cbd 07e5 89be eaf4 333e
000001b0: c16c f03d fae8 eebd d6a6 19bd 3369 3bbd
000001c0: 42ef 343d 7804 133d 4327 78bd 29b8 1cbd
000001d0: 4f70 113d 7d41 4fbe 73c1 1cbd c12f 50bd
000001e0: 486a a0bd c8b5 aabd c6cd ca3c 1cc6 aebd
000001f0: 3099 0dbd c02f 583e b14d 02be 53ba f339
00000200: c496 72be 82e3 073d 994d 593d 883c 3cbd
00000210: 8a77 ec3c 98d1 debd d106 e2ba 2ea4 0d3d
00000220: 99e9 093a 6a08 ecbc 1205 8bbd 141d 94bc
00000230: 4036 ad3d a5b7 1fbe 079a b5bd becd ac3d
00000240: d730 0bbe 74cb 363d 9bf5 fdbc 1e6c 113e
00000250: 0330 713b ca27 03be 523e 9e3d 8d84 113e
00000260: 2441 98bb 0987 82bc e4b0 63be 01db 0c3c
00000270: 07b9 8ebd f759 49bd 652d 19be 0e0d fdbc
00000280: c135 e0bb 37f8 91be 3531 1c3d 92bb a9bd
00000290: 4a50 8b3d 9a78 f8ba f0ae 763d 612e 88be
000002a0: aef2 0ebe ca7a f1bd 115d 25bc 1c90 a23c
000002b0: 78cc 193d e997 90bd d92b b23d 1445 89be
000002c0: 857e 293d 0d7d 303e dc8b f4bd 4112 73bc
000002d0: 18ea 023d 5081 2abd 7c83 003d d20a 403c
000002e0: 361b a3bd 0b3b d93c c627 61bd de93 953d
000002f0: c45a 8bbe ac48 2c3e b478 193e 2740 8d3d
00000300: 64ab 76be e048 0c3e 8fff 90bc b90b c43d
00000310: e0d3 493c 4d82 88bd 359d f03d 2768 69bc
00000320: e633 3dbe c31b 0a3d 2b19 7abc 2282 c03d
00000330: c173 9c3d 839c fabd 1d0f 243e a645 253c
00000340: c400 c03d 0f41 5a3d afdf 0e3b c65e ff3d
00000350: 800c 4d3c 3b1a 63bb edb2 063d 4814 ab3c
00000360: e48c 243b b134 223e 12dc abbd e79b 803e
00000370: 5a5a 9b3c 6723 22bd aff2 adbc f178 163c
00000380: 852c 8a3d 5d1c a9be 9fc5 fcbc 6674 f3bd
00000390: 4f31 3e3e 5fba 9d3d e91f 8f3d 55f1 40be
000003a0: 027f a43c 55a3 033e a93d f8bd 264e 26be
000003b0: c302 c4bc 11f0 bbbb 5297 09bb 7128 69bd
000003c0: 6c84 bb3d 2764 893e b7a5 553d 887c 803d
000003d0: df59 92be ce1b 553e c33d 5c3c a718 c6bd
000003e0: eb1e 953d 4545 69bc 4485 863d 9c35 09bd
000003f0: 532f 7fbd 2b82 cabc 6ddc a3bd f9f8 9d3d
0.0897477 0.023536175 0.14755797 -0.35646307 0.09499714 0.051109724 0.038956743 -0.056986038
0.21069737 -0.045726426 -0.1577543 -0.19844553 -0.08583728 -0.10081267 0.09293002 -0.24834655
-0.05778518 0.03677875 -0.06111379 0.023758197 -0.15506475 0.049420882 -0.19254848 -0.010520533
0.048118494 -0.025980053 -0.06183688 0.01695517 0.055008814 -0.10327527 -0.0121605145 0.024689732
0.020045739 0.036617246 -0.19224222 -0.01956328 -0.053323004 0.10012034 -0.05780534 -0.006547903
-0.041548565 0.10447467 -0.053316984 -0.03621803 -0.043180816 0.018194353 -0.023749107 0.0870896
-0.20658717 -0.028913314 -0.06813039 -0.062129274 -0.13216123 0.020722728 0.018215535 -0.061067317
0.23337874 0.08745814 0.06298493 -0.21780582 0.077093594 0.034574833 -0.08385922 -0.13694824
-0.024126094 0.16781723 -0.12760745 0.16054618 -0.2765076 0.080838524 -0.032056548 -0.10297661
0.0058536762 0.19953087 0.20753591 -0.047170796 0.062051173 0.08952214 -0.10654458 -0.048647135
-0.18349986 0.1423188 -0.1883213 0.103765346 -0.019166714 0.11319827 -0.20719479 -0.009836019
-0.2642888 -0.010111012 -0.15198626 0.30620092 0.0129395295 -0.21678425 0.11652801 0.048888866
-0.06041332 -0.06796182 -0.037246585 0.25793287 -0.17437351 0.0068984693 0.019864801 -0.005752161
-0.14696856 -0.042108245 -0.26932546 0.17573896 0.11739493 -0.116655305 -0.037512623 -0.045754623
0.044173487 0.035892934 -0.060584318 -0.038261566 0.035507496 -0.20239826 -0.038270425 -0.05082679
-0.078327715 -0.08335453 0.024756324 -0.0853388 -0.03456992 0.21111965 -0.1272495 0.00046487394
-0.23690325 0.033175953 0.05305252 -0.045956165 0.028865594 -0.108798206 -0.0017244463 0.034580402
0.0005260944 -0.028812606 -0.067880765 -0.018080272 0.08457613 -0.15597399 -0.08867269 0.0843768
-0.1359285 0.04462762 -0.031000903 0.142014 0.00368023 -0.12808147 0.077267304 0.1421072
-0.0046464372 -0.01593353 -0.22235447 0.0085971365 -0.06968885 -0.049158063 -0.14958723 -0.030890014
-0.0068423455 -0.28509685 0.038132865 -0.08287729 0.06802423 -0.001895684 0.060225427 -0.26597884
-0.13959762 -0.11790998 -0.01009299 0.019844107 0.037548512 -0.070602246 0.086997695 -0.26810515
0.041380424 0.17235203 -0.119407386 -0.014835895 0.03196153 -0.04162723 0.031375393 0.01172133
-0.079641744 0.026517412 -0.05496957 0.07303594 -0.27217686 0.16824597 0.14987451 0.06897002
-0.24088818 0.13699675 -0.017699985 0.095725484 0.012318581 -0.06665478 0.11748735 -0.014246023
-0.18476829 0.033717882 -0.01526479 0.09399821 0.07639266 -0.122368835 0.1602139 0.010087406
0.09375146 0.0532847 0.0021800806 0.124692485 0.012515187 -0.0034653086 0.03288548 0.020883694
0.0025108391 0.15840413 -0.083915845 0.25118944 0.018963981 -0.039584544 -0.021233885 0.009184108
0.06746773 -0.33029452 -0.030855952 -0.118874356 0.18573497 0.07701563 0.06988508 -0.18842061
0.020080093 0.12855275 -0.12121136 -0.16240749 -0.023927098 -0.0057354053 -0.0020994735 -0.056923334
0.09156117 0.26834223 0.05215999 0.062737525 -0.2858419 0.20811388 0.0134424595 -0.09672671
0.07281288 -0.014237707 0.06568387 -0.03349839 -0.06230099 -0.024720272 -0.08001027 0.077135034

fc.bias f4 [5]
00000000: 0a49 0a3e 6b3d 763c e555 533d 440e 293c
00000010: 7b07 e2bb
0.13504425 0.015029292 0.051595587 0.010318343 -0.0068978644
